YOLOv5 temporarily requires wandb version 0.12.10 or below. Some features may not work as expected.
                 from  n    params  module                                  arguments
  0                -1  1      3520  models.common.Conv                      [3, 32, 6, 2, 2]
  1                -1  1     18560  models.common.Conv                      [32, 64, 3, 2]
  2                -1  1     18816  models.common.C3                        [64, 64, 1]
  3                -1  1     73984  models.common.Conv                      [64, 128, 3, 2]
  4                -1  2    115712  models.common.C3                        [128, 128, 2]
  5                -1  1    927250  models.common.DCNConv                   [128, 256, 3, 2]
  6                -1  3    625152  models.common.C3                        [256, 256, 3]
  7                -1  1   3623954  models.common.DCNConv                   [256, 512, 3, 2]
  8                -1  1   1182720  models.common.C3                        [512, 512, 1]
  9                -1  1    656896  models.common.SPPF                      [512, 512, 5]
 10                -1  1    131584  models.common.Conv                      [512, 256, 1, 1]
 11                -1  1         0  torch.nn.modules.upsampling.Upsample    [None, 2, 'nearest']
 12           [-1, 6]  1         0  models.common.Concat                    [1]
 13                -1  1    361984  models.common.C3                        [512, 256, 1, False]
 14                -1  1     33024  models.common.Conv                      [256, 128, 1, 1]
 15                -1  1         0  torch.nn.modules.upsampling.Upsample    [None, 2, 'nearest']
 16           [-1, 4]  1         0  models.common.Concat                    [1]
 17                -1  1     90880  models.common.C3                        [256, 128, 1, False]
 18                -1  1     16640  models.common.Conv                      [128, 128, 1, 1]
 19                -1  1         0  torch.nn.modules.upsampling.Upsample    [None, 2, 'nearest']
 20           [-1, 2]  1         0  models.common.Concat                    [1]
 21                -1  1     82688  models.common.C3                        [192, 128, 1, False]
 22                -1  1    147712  models.common.Conv                      [128, 128, 3, 2]
 23          [-1, 18]  1         0  models.common.Concat                    [1]
 24                -1  1     90880  models.common.C3                        [256, 128, 1, False]
 25                -1  1    147712  models.common.Conv                      [128, 128, 3, 2]
 26          [-1, 14]  1         0  models.common.Concat                    [1]
 27                -1  1    296448  models.common.C3                        [256, 256, 1, False]
 28                -1  1    590336  models.common.Conv                      [256, 256, 3, 2]
 29          [-1, 10]  1         0  models.common.Concat                    [1]
 30                -1  1   1182720  models.common.C3                        [512, 512, 1, False]
 31  [21, 24, 27, 30]  1     18504  models.yolo.Detect                      [1, [[0, 1, 2, 3, 4, 5], [0, 1, 2, 3, 4, 5], [0, 1, 2, 3, 4, 5], [0, 1, 2, 3, 4, 5]], [128, 128, 256, 512]]
YOLOv5s-2-DCN2 summary: 336 layers, 10437676 parameters, 10437676 gradients, 23.8 GFLOPs
Transferred 263/439 items from weights/yolov5s.pt
[34m[1mAMP: [39m[22mchecks passed ✅
Scaled weight_decay = 0.0005
…
